…
elapsed":1014,"user":{"displayName":"9023-Chetna Burde","photoUrl":"https://lh3.googleusercontent.com/a-/AOh14GjRRvrOiUhOHKRl_QoGUxBTmpla0VS001_TcCep=s64","userId":"09272622252743203851"}},"outputId":"038b70d5-e295-4f44-f658-79e3ddb875b2"},"source":["model.summary()"],"execution_count":5,"outputs":[{"output_type":"stream","text":["Model: \"sequential_1\"\n","_________________________________________________________________\n","Layer (type)                 Output Shape              Param #   \n","=================================================================\n","conv2d_3 (Conv2D)            (None, 30, 30, 32)        896       \n","_________________________________________________________________\n","max_pooling2d_2 (MaxPooling2 (None, 15, 15, 32)        0         \n","_________________________________________________________________\n","conv2d_4 (Conv2D)            (None, 13, 13, 64)        18496     \n","_________________________________________________________________\n","max_pooling2d_3 (MaxPooling2 (None, 6, 6, 64)          0         \n","_________________________________________________________________\n","conv2d_5 (Conv2D)            (None, 4, 4, 64)          36928     \n","=================================================================\n","Total params: 56,320\n","Trainable params: 56,320\n","Non-trainable params: 0\n","_________________________________________________________________\n"],"name":"stdout"}]},{"cell_type":"code","metadata":{"id":"Aoqn0l4V6y-e","executionInfo":{"status":"ok","timestamp":1615208434327,"user_tz":360,"elapsed":1022,"user":{"di
…
elapsed":1044,"user":{"displayName":"9023-Chetna Burde","photoUrl":"https://lh3.googleusercontent.com/a-/AOh14GjRRvrOiUhOHKRl_QoGUxBTmpla0VS001_TcCep=s64","userId":"09272622252743203851"}},"outputId":"9602cfd1-beb4-4a03-8105-135cc82fc5d2"},"source":["model.summary()"],"execution_count":8,"outputs":[{"output_type":"stream","text":["Model: \"sequential_1\"\n","_________________________________________________________________\n","Layer (type)                 Output Shape              Param #   \n","=================================================================\n","conv2d_3 (Conv2D)            (None, 30, 30, 32)        896       \n","_________________________________________________________________\n","max_pooling2d_2 (MaxPooling2 (None, 15, 15, 32)        0         \n","_________________________________________________________________\n","conv2d_4 (Conv2D)            (None, 13, 13, 64)        18496     \n","_________________________________________________________________\n","max_pooling2d_3 (MaxPooling2 (None, 6, 6, 64)          0         \n","_________________________________________________________________\n","conv2d_5 (Conv2D)            (None, 4, 4, 64)          36928     \n","_________________________________________________________________\n","flatten (Flatten)            (None, 1024)              0         \n","_________________________________________________________________\n","dense (Dense)                (None, 64)                65600     \n","_________________________________________________________________\n","dense_1 (Dense)              (None, 10)                650       \n","_________________________________________________________________\n","flatten_1 (Flatten)          (None, 10)                0         \n","_________________________________________________________________\n","dense_2 (Dense)              (None, 64)                704       \n","_________________________________________________________________\n","dense_3 (Dense)              (None, 10)                650       \n","=================================================================\n","Total params: 123,924\n","Trainable params: 123,924\n","Non-trainable params: 0\n","_________________________________________________________________\n"],"name":"stdout"}]},{"cell_type":"code","metadata":{"colab":{"base_uri":"https://localhost:8080/"},"id":"kjb8Jj6c7ah1","executionInfo":{"status":"ok","timestamp":161
…
